Model: "model_rgb_16_32_64_128_256"
_________________________________________________________________
 Layer (type)                Output Shape              Param #   
=================================================================
 input_points (InputLayer)   [(None, 3)]               0         
                                                                 
 L0_16_nodes (Dense)         (None, 16)                64        
                                                                 
 L1_32_nodes (Dense)         (None, 32)                544       
                                                                 
 L2_64_nodes (Dense)         (None, 64)                2112      
                                                                 
 L3_128_nodes (Dense)        (None, 128)               8320      
                                                                 
 L4_256_nodes (Dense)        (None, 256)               33024     
                                                                 
 Dropout (Dropout)           (None, 256)               0         
                                                                 
 Final_Dense (Dense)         (None, 1)                 257       
                                                                 
=================================================================
Total params: 44,321
Trainable params: 44,321
Non-trainable params: 0
_________________________________________________________________
created: 20240606
bare-Earth file: J:/WA_Elwha/training_point_clouds/training_noveg_UPDATED_20210825.laz
vegetation file: J:/WA_Elwha/training_point_clouds/training_veg_UPDATED_20210825.laz
…
